…
lm_head.base_model.model.model.layers.31.post_attention_layernorm.weight - torch.Size([4096]): 
The value is the same before and after calling `init_weights` of Petr3D  

lm_head.base_model.model.model.norm.weight - torch.Size([4096]): 
The value is the same before and after calling `init_weights` of Petr3D  

lm_head.base_model.model.lm_head.weight - torch.Size([32000, 4096]): 
The value is the same before and after calling `init_weights` of Petr3D  
2025-03-02 05:30:00,613 - mmdet - INFO - Model:
Petr3D(
  (pts_bbox_head): StreamPETRHead(
    (loss_cls): FocalLoss()
    (loss_bbox): L1Loss()
    (cls_branches): ModuleList(
      (0): Sequential(
        (0): Linear(in_features=256, out_features=256, bias=True)
        (1): LayerNorm((256,), eps=1e-05, elementwise_affine=True)
        (2): ReLU(inplace=True)
        (3): Linear(in_features=256, out_features=256, bias=True)
        (4): LayerNorm((256,), eps=1e-05, elementwise_affine=True)
        (5): ReLU(inplace=True)
        (6): Linear(in_features=256, out_features=10, bias=True)
      )
      (1): Sequential(
        (0): Linear(in_features=256, out_features=256, bias=True)
        (1): LayerNorm((256,), eps=1e-05, elementwise_affine=True)
        (2): ReLU(inplace=True)
        (3): Linear(in_features=256, out_features=256, bias=True)
        (4): LayerNorm((256,), eps=1e-05, elementwise_affine=True)
        (5): ReLU(inplace=True)
        (6): Linear(in_features=256, out_features=10, bias=True)
      )
      (2): Sequential(
        (0): Linear(in_features=256, out_features=256, bias=True)
        (1): LayerNorm((256,), eps=1e-05, elementwise_affine=True)
        (2): ReLU(inplace=True)
        (3): Linear(in_features=256, out_features=256, bias=True)
        (4): LayerNorm((256,), eps=1e-05, elementwise_affine=True)
        (5): ReLU(inplace=True)
        (6): Linear(in_features=256, out_features=10, bias=True)
      )
      (3): Sequential(
        (0): Linear(in_features=256, out_features=256, bias=True)
        (1): LayerNorm((256,), eps=1e-05, elementwise_affine=True)
        (2): ReLU(inplace=True)
        (3): Linear(in_features=256, out_features=256, bias=True)
        (4): LayerNorm((256,), eps=1e-05, elementwise_affine=True)
        (5): ReLU(inplace=True)
        (6): Linear(in_features=256, out_features=10, bias=True)
      )
      (4): Sequential(
        (0): Linear(in_features=256, out_features=256, bias=True)
        (1): LayerNorm((256,), eps=1e-05, elementwise_affine=True)
        (2): ReLU(inplace=True)
        (3): Linear(in_features=256, out_features=256, bias=True)
        (4): LayerNorm((256,), eps=1e-05, elementwise_affine=True)
        (5): ReLU(inplace=True)
        (6): Linear(in_features=256, out_features=10, bias=True)
      )
      (5): Sequential(
        (0): Linear(in_features=256, out_features=256, bias=True)
        (1): LayerNorm((256,), eps=1e-05, elementwise_affine=True)
        (2): ReLU(inplace=True)
        (3): Linear(in_features=256, out_features=256, bias=True)
        (4): LayerNorm((256,), eps=1e-05, elementwise_affine=True)
        (5): ReLU(inplace=True)
        (6): Linear(in_features=256, out_features=10, bias=True)
      )
    )
    (reg_branches): ModuleList(
      (0): Sequential(
        (0): Linear(in_features=256, out_features=256, bias=True)
        (1): ReLU()
        (2): Linear(in_features=256, out_features=256, bias=True)
        (3): ReLU()
        (4): Linear(in_features=256, out_features=10, bias=True)
      )
      (1): Sequential(
        (0): Linear(in_features=256, out_features=256, bias=True)
        (1): ReLU()
        (2): Linear(in_features=256, out_features=256, bias=True)
        (3): ReLU()
        (4): Linear(in_features=256, out_features=10, bias=True)
      )
      (2): Sequential(
        (0): Linear(in_features=256, out_features=256, bias=True)
        (1): ReLU()
        (2): Linear(in_features=256, out_features=256, bias=True)
        (3): ReLU()
        (4): Linear(in_features=256, out_features=10, bias=True)
      )
      (3): Sequential(
        (0): Linear(in_features=256, out_features=256, bias=True)
        (1): ReLU()
        (2): Linear(in_features=256, out_features=256, bias=True)
        (3): ReLU()
        (4): Linear(in_features=256, out_features=10, bias=True)
      )
      (4): Sequential(
        (0): Linear(in_features=256, out_features=256, bias=True)
        (1): ReLU()
        (2): Linear(in_features=256, out_features=256, bias=True)
        (3): ReLU()
        (4): Linear(in_features=256, out_features=10, bias=True)
      )
      (5): Sequential(
        (0): Linear(in_features=256, out_features=256, bias=True)
        (1): ReLU()
        (2): Linear(in_features=256, out_features=256, bias=True)
        (3): ReLU()
        (4): Linear(in_features=256, out_features=10, bias=True)
      )
    )
    (input_projection): Linear(in_features=1024, out_features=256, bias=True)
    (output_projection): Linear(in_features=256, out_features=4096, bias=True)
    (reference_points): Embedding(600, 3)
    (pseudo_reference_points): Embedding(300, 3)
    (query_embedding): Embedding(256, 256)
    (can_bus_embed): Sequential(
      (0): Linear(in_features=74, out_features=1024, bias=True)
      (1): ReLU()
      (2): Linear(in_features=1024, out_features=4096, bias=True)
    )
    (loss_iou): GIoULoss()
    (transformer): PETRTemporalTransformer(
      (query_decoder): PETRTransformerDecoder(
        (_layers): ModuleList(
          (0): PETRTransformerDecoderLayer(
            (transformer_layers): ModuleList(
              (0): MultiHeadAttentionwDropout(
                (attn): MultiheadAttention(
                  (out_proj): NonDynamicallyQuantizableLinear(in_features=256, out_features=256, bias=True)
                )
                (proj_drop): Dropout(p=0.1, inplace=False)
              )
              (1): LayerNorm((256,), eps=1e-05, elementwise_affine=True)
              (2): MultiHeadAttentionwDropout(
                (attn): FlashMHA(
                  (inner_attn): FlashAttention()
                  (out_proj): Linear(in_features=256, out_features=256, bias=True)
                )
                (proj_drop): Dropout(p=0.1, inplace=False)
              )
              (3): LayerNorm((256,), eps=1e-05, elementwise_affine=True)
              (4): FFN(
                (_layers): Sequential(
                  (0): Linear(in_features=256, out_features=2048, bias=True)
                  (1): ReLU(inplace=True)
                  (2): Dropout(p=0.1, inplace=False)
                  (3): Linear(in_features=2048, out_features=256, bias=True)
                  (4): Dropout(p=0.1, inplace=False)
                )
              )
              (5): LayerNorm((256,), eps=1e-05, elementwise_affine=True)
            )
          )
          (1): PETRTransformerDecoderLayer(
            (transformer_layers): ModuleList(
              (0): MultiHeadAttentionwDropout(
                (attn): MultiheadAttention(
                  (out_proj): NonDynamicallyQuantizableLinear(in_features=256, out_features=256, bias=True)
                )
                (proj_drop): Dropout(p=0.1, inplace=False)
              )
              (1): LayerNorm((256,), eps=1e-05, elementwise_affine=True)
              (2): MultiHeadAttentionwDropout(
                (attn): FlashMHA(
                  (inner_attn): FlashAttention()
                  (out_proj): Linear(in_features=256, out_features=256, bias=True)
                )
                (proj_drop): Dropout(p=0.1, inplace=False)
              )
              (3): LayerNorm((256,), eps=1e-05, elementwise_affine=True)
              (4): FFN(
                (_layers): Sequential(
                  (0): Linear(in_features=256, out_features=2048, bias=True)
                  (1): ReLU(inplace=True)
                  (2): Dropout(p=0.1, inplace=False)
                  (3): Linear(in_features=2048, out_features=256, bias=True)
                  (4): Dropout(p=0.1, inplace=False)
                )
              )
              (5): LayerNorm((256,), eps=1e-05, elementwise_affine=True)
            )
          )
          (2): PETRTransformerDecoderLayer(
            (transformer_layers): ModuleList(
              (0): MultiHeadAttentionwDropout(
                (attn): MultiheadAttention(
                  (out_proj): NonDynamicallyQuantizableLinear(in_features=256, out_features=256, bias=True)
                )
                (proj_drop): Dropout(p=0.1, inplace=False)
              )
              (1): LayerNorm((256,), eps=1e-05, elementwise_affine=True)
              (2): MultiHeadAttentionwDropout(
                (attn): FlashMHA(
                  (inner_attn): FlashAttention()
                  (out_proj): Linear(in_features=256, out_features=256, bias=True)
                )
                (proj_drop): Dropout(p=0.1, inplace=False)
              )
              (3): LayerNorm((256,), eps=1e-05, elementwise_affine=True)
              (4): FFN(
                (_layers): Sequential(
                  (0): Linear(in_features=256, out_features=2048, bias=True)
                  (1): ReLU(inplace=True)
                  (2): Dropout(p=0.1, inplace=False)
                  (3): Linear(in_features=2048, out_features=256, bias=True)
                  (4): Dropout(p=0.1, inplace=False)
                )
              )
              (5): LayerNorm((256,), eps=1e-05, elementwise_affine=True)
            )
          )
          (3): PETRTransformerDecoderLayer(
            (transformer_layers): ModuleList(
              (0): MultiHeadAttentionwDropout(
                (attn): MultiheadAttention(
                  (out_proj): NonDynamicallyQuantizableLinear(in_features=256, out_features=256, bias=True)
                )
                (proj_drop): Dropout(p=0.1, inplace=False)
              )
              (1): LayerNorm((256,), eps=1e-05, elementwise_affine=True)
              (2): MultiHeadAttentionwDropout(
                (attn): FlashMHA(
                  (inner_attn): FlashAttention()
                  (out_proj): Linear(in_features=256, out_features=256, bias=True)
                )
                (proj_drop): Dropout(p=0.1, inplace=False)
              )
              (3): LayerNorm((256,), eps=1e-05, elementwise_affine=True)
              (4): FFN(
                (_layers): Sequential(
                  (0): Linear(in_features=256, out_features=2048, bias=True)
                  (1): ReLU(inplace=True)
                  (2): Dropout(p=0.1, inplace=False)
                  (3): Linear(in_features=2048, out_features=256, bias=True)
                  (4): Dropout(p=0.1, inplace=False)
                )
              )
              (5): LayerNorm((256,), eps=1e-05, elementwise_affine=True)
            )
          )
          (4): PETRTransformerDecoderLayer(
            (transformer_layers): ModuleList(
              (0): MultiHeadAttentionwDropout(
                (attn): MultiheadAttention(
                  (out_proj): NonDynamicallyQuantizableLinear(in_features=256, out_features=256, bias=True)
                )
                (proj_drop): Dropout(p=0.1, inplace=False)
              )
              (1): LayerNorm((256,), eps=1e-05, elementwise_affine=True)
              (2): MultiHeadAttentionwDropout(
                (attn): FlashMHA(
                  (inner_attn): FlashAttention()
                  (out_proj): Linear(in_features=256, out_features=256, bias=True)
                )
                (proj_drop): Dropout(p=0.1, inplace=False)
              )
              (3): LayerNorm((256,), eps=1e-05, elementwise_affine=True)
              (4): FFN(
                (_layers): Sequential(
                  (0): Linear(in_features=256, out_features=2048, bias=True)
                  (1): ReLU(inplace=True)
                  (2): Dropout(p=0.1, inplace=False)
                  (3): Linear(in_features=2048, out_features=256, bias=True)
                  (4): Dropout(p=0.1, inplace=False)
                )
              )
              (5): LayerNorm((256,), eps=1e-05, elementwise_affine=True)
            )
          )
          (5): PETRTransformerDecoderLayer(
            (transformer_layers): ModuleList(
              (0): MultiHeadAttentionwDropout(
                (attn): MultiheadAttention(
                  (out_proj): NonDynamicallyQuantizableLinear(in_features=256, out_features=256, bias=True)
                )
                (proj_drop): Dropout(p=0.1, inplace=False)
              )
              (1): LayerNorm((256,), eps=1e-05, elementwise_affine=True)
              (2): MultiHeadAttentionwDropout(
                (attn): FlashMHA(
                  (inner_attn): FlashAttention()
                  (out_proj): Linear(in_features=256, out_features=256, bias=True)
                )
                (proj_drop): Dropout(p=0.1, inplace=False)
              )
              (3): LayerNorm((256,), eps=1e-05, elementwise_affine=True)
              (4): FFN(
                (_layers): Sequential(
                  (0): Linear(in_features=256, out_features=2048, bias=True)
                  (1): ReLU(inplace=True)
                  (2): Dropout(p=0.1, inplace=False)
                  (3): Linear(in_features=2048, out_features=256, bias=True)
                  (4): Dropout(p=0.1, inplace=False)
                )
              )
              (5): LayerNorm((256,), eps=1e-05, elementwise_affine=True)
            )
          )
        )
      )
    )
    (query_pos): Sequential(
      (0): Linear(in_features=396, out_features=256, bias=True)
      (1): ReLU()
      (2): Linear(in_features=256, out_features=256, bias=True)
    )
    (time_embedding): Sequential(
      (0): Linear(in_features=256, out_features=256, bias=True)
      (1): LayerNorm((256,), eps=1e-05, elementwise_affine=True)
    )
    (ego_pose_pe): MLN(
      (reduce): Sequential(
        (0): Linear(in_features=156, out_features=256, bias=True)
        (1): ReLU()
      )
      (gamma): Linear(in_features=256, out_features=256, bias=True)
      (beta): Linear(in_features=256, out_features=256, bias=True)
      (ln): LayerNorm((256,), eps=1e-05, elementwise_affine=False)
    )
  )
  (img_backbone): EVAViT(
    (patch_embed): PatchEmbed(
      (proj): Conv2d(3, 1024, kernel_size=(16, 16), stride=(16, 16))
    )
    (rope_win): VisionRotaryEmbeddingFast()
    (rope_glb): VisionRotaryEmbeddingFast()
    (blocks): ModuleList(
      (0): Block(
        (norm1): LayerNorm((1024,), eps=1e-06, elementwise_affine=True)
        (attn): Attention(
          (q_proj): Linear(in_features=1024, out_features=1024, bias=False)
          (k_proj): Linear(in_features=1024, out_features=1024, bias=False)
          (v_proj): Linear(in_features=1024, out_features=1024, bias=False)
          (rope): VisionRotaryEmbeddingFast()
          (proj): Linear(in_features=1024, out_features=1024, bias=True)
          (inner_attn_ln): Identity()
          (inner_attn): FlashAttention()
        )
        (drop_path): Identity()
        (norm2): LayerNorm((1024,), eps=1e-06, elementwise_affine=True)
        (mlp): SwiGLU(
          (w1): Linear(in_features=1024, out_features=2730, bias=True)
          (w2): Linear(in_features=1024, out_features=2730, bias=True)
          (act): SiLU()
          (ffn_ln): LayerNorm((2730,), eps=1e-06, elementwise_affine=True)
          (w3): Linear(in_features=2730, out_features=1024, bias=True)
          (drop): Dropout(p=0.0, inplace=False)
        )
      )
      (1): Block(
        (norm1): LayerNorm((1024,), eps=1e-06, elementwise_affine=True)
        (attn): Attention(
          (q_proj): Linear(in_features=1024, out_features=1024, bias=False)
          (k_proj): Linear(in_features=1024, out_features=1024, bias=False)
          (v_proj): Linear(in_features=1024, out_features=1024, bias=False)
          (rope): VisionRotaryEmbeddingFast()
          (proj): Linear(in_features=1024, out_features=1024, bias=True)
          (inner_attn_ln): Identity()
          (inner_attn): FlashAttention()
        )
        (drop_path): DropPath()
        (norm2): LayerNorm((1024,), eps=1e-06, elementwise_affine=True)
        (mlp): SwiGLU(
          (w1): Linear(in_features=1024, out_features=2730, bias=True)
          (w2): Linear(in_features=1024, out_features=2730, bias=True)
          (act): SiLU()
          (ffn_ln): LayerNorm((2730,), eps=1e-06, elementwise_affine=True)
          (w3): Linear(in_features=2730, out_features=1024, bias=True)
          (drop): Dropout(p=0.0, inplace=False)
        )
      )
      (2): Block(
        (norm1): LayerNorm((1024,), eps=1e-06, elementwise_affine=True)
        (attn): Attention(
          (q_proj): Linear(in_features=1024, out_features=1024, bias=False)
          (k_proj): Linear(in_features=1024, out_features=1024, bias=False)
          (v_proj): Linear(in_features=1024, out_features=1024, bias=False)
          (rope): VisionRotaryEmbeddingFast()
          (proj): Linear(in_features=1024, out_features=1024, bias=True)
          (inner_attn_ln): Identity()
          (inner_attn): FlashAttention()
        )
        (drop_path): DropPath()
        (norm2): LayerNorm((1024,), eps=1e-06, elementwise_affine=True)
        (mlp): SwiGLU(
          (w1): Linear(in_features=1024, out_features=2730, bias=True)
          (w2): Linear(in_features=1024, out_features=2730, bias=True)
          (act): SiLU()
          (ffn_ln): LayerNorm((2730,), eps=1e-06, elementwise_affine=True)
          (w3): Linear(in_features=2730, out_features=1024, bias=True)
          (drop): Dropout(p=0.0, inplace=False)
        )
      )
      (3): Block(
        (norm1): LayerNorm((1024,), eps=1e-06, elementwise_affine=True)
        (attn): Attention(
          (q_proj): Linear(in_features=1024, out_features=1024, bias=False)
          (k_proj): Linear(in_features=1024, out_features=1024, bias=False)
          (v_proj): Linear(in_features=1024, out_features=1024, bias=False)
          (rope): VisionRotaryEmbeddingFast()
          (proj): Linear(in_features=1024, out_features=1024, bias=True)
          (inner_attn_ln): Identity()
          (inner_attn): FlashAttention()
        )
        (drop_path): DropPath()
        (norm2): LayerNorm((1024,), eps=1e-06, elementwise_affine=True)
        (mlp): SwiGLU(
          (w1): Linear(in_features=1024, out_features=2730, bias=True)
          (w2): Linear(in_features=1024, out_features=2730, bias=True)
          (act): SiLU()
          (ffn_ln): LayerNorm((2730,), eps=1e-06, elementwise_affine=True)
          (w3): Linear(in_features=2730, out_features=1024, bias=True)
          (drop): Dropout(p=0.0, inplace=False)
        )
      )
      (4): Block(
        (norm1): LayerNorm((1024,), eps=1e-06, elementwise_affine=True)
        (attn): Attention(
          (q_proj): Linear(in_features=1024, out_features=1024, bias=False)
          (k_proj): Linear(in_features=1024, out_features=1024, bias=False)
          (v_proj): Linear(in_features=1024, out_features=1024, bias=False)
          (rope): VisionRotaryEmbeddingFast()
          (proj): Linear(in_features=1024, out_features=1024, bias=True)
          (inner_attn_ln): Identity()
          (inner_attn): FlashAttention()
        )
        (drop_path): DropPath()
        (norm2): LayerNorm((1024,), eps=1e-06, elementwise_affine=True)
        (mlp): SwiGLU(
          (w1): Linear(in_features=1024, out_features=2730, bias=True)
          (w2): Linear(in_features=1024, out_features=2730, bias=True)
          (act): SiLU()
          (ffn_ln): LayerNorm((2730,), eps=1e-06, elementwise_affine=True)
          (w3): Linear(in_features=2730, out_features=1024, bias=True)
          (drop): Dropout(p=0.0, inplace=False)
        )
      )
      (5): Block(
        (norm1): LayerNorm((1024,), eps=1e-06, elementwise_affine=True)
        (attn): Attention(
          (q_proj): Linear(in_features=1024, out_features=1024, bias=False)
          (k_proj): Linear(in_features=1024, out_features=1024, bias=False)
          (v_proj): Linear(in_features=1024, out_features=1024, bias=False)
          (rope): VisionRotaryEmbeddingFast()
          (proj): Linear(in_features=1024, out_features=1024, bias=True)
          (inner_attn_ln): Identity()
          (inner_attn): FlashAttention()
        )
        (drop_path): DropPath()
        (norm2): LayerNorm((1024,), eps=1e-06, elementwise_affine=True)
        (mlp): SwiGLU(
          (w1): Linear(in_features=1024, out_features=2730, bias=True)
          (w2): Linear(in_features=1024, out_features=2730, bias=True)
          (act): SiLU()
          (ffn_ln): LayerNorm((2730,), eps=1e-06, elementwise_affine=True)
          (w3): Linear(in_features=2730, out_features=1024, bias=True)
          (drop): Dropout(p=0.0, inplace=False)
        )
      )
      (6): Block(
        (norm1): LayerNorm((1024,), eps=1e-06, elementwise_affine=True)
        (attn): Attention(
          (q_proj): Linear(in_features=1024, out_features=1024, bias=False)
          (k_proj): Linear(in_features=1024, out_features=1024, bias=False)
          (v_proj): Linear(in_features=1024, out_features=1024, bias=False)
          (rope): VisionRotaryEmbeddingFast()
          (proj): Linear(in_features=1024, out_features=1024, bias=True)
          (inner_attn_ln): Identity()
          (inner_attn): FlashAttention()
        )
        (drop_path): DropPath()
        (norm2): LayerNorm((1024,), eps=1e-06, elementwise_affine=True)
        (mlp): SwiGLU(
          (w1): Linear(in_features=1024, out_features=2730, bias=True)
          (w2): Linear(in_features=1024, out_features=2730, bias=True)
          (act): SiLU()
          (ffn_ln): LayerNorm((2730,), eps=1e-06, elementwise_affine=True)
          (w3): Linear(in_features=2730, out_features=1024, bias=True)
          (drop): Dropout(p=0.0, inplace=False)
        )
      )
      (7): Block(
        (norm1): LayerNorm((1024,), eps=1e-06, elementwise_affine=True)
        (attn): Attention(
          (q_proj): Linear(in_features=1024, out_features=1024, bias=False)
          (k_proj): Linear(in_features=1024, out_features=1024, bias=False)
          (v_proj): Linear(in_features=1024, out_features=1024, bias=False)
          (rope): VisionRotaryEmbeddingFast()
          (proj): Linear(in_features=1024, out_features=1024, bias=True)
          (inner_attn_ln): Identity()
          (inner_attn): FlashAttention()
        )
        (drop_path): DropPath()
        (norm2): LayerNorm((1024,), eps=1e-06, elementwise_affine=True)
        (mlp): SwiGLU(
          (w1): Linear(in_features=1024, out_features=2730, bias=True)
          (w2): Linear(in_features=1024, out_features=2730, bias=True)
          (act): SiLU()
          (ffn_ln): LayerNorm((2730,), eps=1e-06, elementwise_affine=True)
          (w3): Linear(in_features=2730, out_features=1024, bias=True)
          (drop): Dropout(p=0.0, inplace=False)
        )
      )
      (8): Block(
        (norm1): LayerNorm((1024,), eps=1e-06, elementwise_affine=True)
        (attn): Attention(
          (q_proj): Linear(in_features=1024, out_features=1024, bias=False)
          (k_proj): Linear(in_features=1024, out_features=1024, bias=False)
          (v_proj): Linear(in_features=1024, out_features=1024, bias=False)
          (rope): VisionRotaryEmbeddingFast()
          (proj): Linear(in_features=1024, out_features=1024, bias=True)
          (inner_attn_ln): Identity()
          (inner_attn): FlashAttention()
        )
        (drop_path): DropPath()
        (norm2): LayerNorm((1024,), eps=1e-06, elementwise_affine=True)
        (mlp): SwiGLU(
          (w1): Linear(in_features=1024, out_features=2730, bias=True)
          (w2): Linear(in_features=1024, out_features=2730, bias=True)
          (act): SiLU()
          (ffn_ln): LayerNorm((2730,), eps=1e-06, elementwise_affine=True)
          (w3): Linear(in_features=2730, out_features=1024, bias=True)
          (drop): Dropout(p=0.0, inplace=False)
        )
      )
      (9): Block(
        (norm1): LayerNorm((1024,), eps=1e-06, elementwise_affine=True)
        (attn): Attention(
          (q_proj): Linear(in_features=1024, out_features=1024, bias=False)
          (k_proj): Linear(in_features=1024, out_features=1024, bias=False)
          (v_proj): Linear(in_features=1024, out_features=1024, bias=False)
          (rope): VisionRotaryEmbeddingFast()
          (proj): Linear(in_features=1024, out_features=1024, bias=True)
          (inner_attn_ln): Identity()
          (inner_attn): FlashAttention()
        )
        (drop_path): DropPath()
        (norm2): LayerNorm((1024,), eps=1e-06, elementwise_affine=True)
        (mlp): SwiGLU(
          (w1): Linear(in_features=1024, out_features=2730, bias=True)
          (w2): Linear(in_features=1024, out_features=2730, bias=True)
          (act): SiLU()
          (ffn_ln): LayerNorm((2730,), eps=1e-06, elementwise_affine=True)
          (w3): Linear(in_features=2730, out_features=1024, bias=True)
          (drop): Dropout(p=0.0, inplace=False)
        )
      )
      (10): Block(
        (norm1): LayerNorm((1024,), eps=1e-06, elementwise_affine=True)
        (attn): Attention(
          (q_proj): Linear(in_features=1024, out_features=1024, bias=False)
          (k_proj): Linear(in_features=1024, out_features=1024, bias=False)
          (v_proj): Linear(in_features=1024, out_features=1024, bias=False)
          (rope): VisionRotaryEmbeddingFast()
          (proj): Linear(in_features=1024, out_features=1024, bias=True)
          (inner_attn_ln): Identity()
          (inner_attn): FlashAttention()
        )
        (drop_path): DropPath()
        (norm2): LayerNorm((1024,), eps=1e-06, elementwise_affine=True)
        (mlp): SwiGLU(
          (w1): Linear(in_features=1024, out_features=2730, bias=True)
          (w2): Linear(in_features=1024, out_features=2730, bias=True)
          (act): SiLU()
          (ffn_ln): LayerNorm((2730,), eps=1e-06, elementwise_affine=True)
          (w3): Linear(in_features=2730, out_features=1024, bias=True)
          (drop): Dropout(p=0.0, inplace=False)
        )
      )
      (11): Block(
        (norm1): LayerNorm((1024,), eps=1e-06, elementwise_affine=True)
        (attn): Attention(
          (q_proj): Linear(in_features=1024, out_features=1024, bias=False)
          (k_proj): Linear(in_features=1024, out_features=1024, bias=False)
          (v_proj): Linear(in_features=1024, out_features=1024, bias=False)
          (rope): VisionRotaryEmbeddingFast()
          (proj): Linear(in_features=1024, out_features=1024, bias=True)
          (inner_attn_ln): Identity()
          (inner_attn): FlashAttention()
        )
        (drop_path): DropPath()
        (norm2): LayerNorm((1024,), eps=1e-06, elementwise_affine=True)
        (mlp): SwiGLU(
          (w1): Linear(in_features=1024, out_features=2730, bias=True)
          (w2): Linear(in_features=1024, out_features=2730, bias=True)
          (act): SiLU()
          (ffn_ln): LayerNorm((2730,), eps=1e-06, elementwise_affine=True)
          (w3): Linear(in_features=2730, out_features=1024, bias=True)
          (drop): Dropout(p=0.0, inplace=False)
        )
      )
      (12): Block(
        (norm1): LayerNorm((1024,), eps=1e-06, elementwise_affine=True)
        (attn): Attention(
          (q_proj): Linear(in_features=1024, out_features=1024, bias=False)
          (k_proj): Linear(in_features=1024, out_features=1024, bias=False)
          (v_proj): Linear(in_features=1024, out_features=1024, bias=False)
          (rope): VisionRotaryEmbeddingFast()
          (proj): Linear(in_features=1024, out_features=1024, bias=True)
          (inner_attn_ln): Identity()
          (inner_attn): FlashAttention()
        )
        (drop_path): DropPath()
        (norm2): LayerNorm((1024,), eps=1e-06, elementwise_affine=True)
        (mlp): SwiGLU(
          (w1): Linear(in_features=1024, out_features=2730, bias=True)
          (w2): Linear(in_features=1024, out_features=2730, bias=True)
          (act): SiLU()
          (ffn_ln): LayerNorm((2730,), eps=1e-06, elementwise_affine=True)
          (w3): Linear(in_features=2730, out_features=1024, bias=True)
          (drop): Dropout(p=0.0, inplace=False)
        )
      )
      (13): Block(
        (norm1): LayerNorm((1024,), eps=1e-06, elementwise_affine=True)
        (attn): Attention(
          (q_proj): Linear(in_features=1024, out_features=1024, bias=False)
          (k_proj): Linear(in_features=1024, out_features=1024, bias=False)
          (v_proj): Linear(in_features=1024, out_features=1024, bias=False)
          (rope): VisionRotaryEmbeddingFast()
          (proj): Linear(in_features=1024, out_features=1024, bias=True)
          (inner_attn_ln): Identity()
          (inner_attn): FlashAttention()
        )
        (drop_path): DropPath()
        (norm2): LayerNorm((1024,), eps=1e-06, elementwise_affine=True)
        (mlp): SwiGLU(
          (w1): Linear(in_features=1024, out_features=2730, bias=True)
          (w2): Linear(in_features=1024, out_features=2730, bias=True)
          (act): SiLU()
          (ffn_ln): LayerNorm((2730,), eps=1e-06, elementwise_affine=True)
          (w3): Linear(in_features=2730, out_features=1024, bias=True)
          (drop): Dropout(p=0.0, inplace=False)
        )
      )
      (14): Block(
        (norm1): LayerNorm((1024,), eps=1e-06, elementwise_affine=True)
        (attn): Attention(
          (q_proj): Linear(in_features=1024, out_features=1024, bias=False)
          (k_proj): Linear(in_features=1024, out_features=1024, bias=False)
          (v_proj): Linear(in_features=1024, out_features=1024, bias=False)
          (rope): VisionRotaryEmbeddingFast()
          (proj): Linear(in_features=1024, out_features=1024, bias=True)
          (inner_attn_ln): Identity()
          (inner_attn): FlashAttention()
        )
        (drop_path): DropPath()
        (norm2): LayerNorm((1024,), eps=1e-06, elementwise_affine=True)
        (mlp): SwiGLU(
          (w1): Linear(in_features=1024, out_features=2730, bias=True)
          (w2): Linear(in_features=1024, out_features=2730, bias=True)
          (act): SiLU()
          (ffn_ln): LayerNorm((2730,), eps=1e-06, elementwise_affine=True)
          (w3): Linear(in_features=2730, out_features=1024, bias=True)
          (drop): Dropout(p=0.0, inplace=False)
        )
      )
      (15): Block(
        (norm1): LayerNorm((1024,), eps=1e-06, elementwise_affine=True)
        (attn): Attention(
          (q_proj): Linear(in_features=1024, out_features=1024, bias=False)
          (k_proj): Linear(in_features=1024, out_features=1024, bias=False)
          (v_proj): Linear(in_features=1024, out_features=1024, bias=False)
          (rope): VisionRotaryEmbeddingFast()
          (proj): Linear(in_features=1024, out_features=1024, bias=True)
          (inner_attn_ln): Identity()
          (inner_attn): FlashAttention()
        )
        (drop_path): DropPath()
        (norm2): LayerNorm((1024,), eps=1e-06, elementwise_affine=True)
        (mlp): SwiGLU(
          (w1): Linear(in_features=1024, out_features=2730, bias=True)
          (w2): Linear(in_features=1024, out_features=2730, bias=True)
          (act): SiLU()
          (ffn_ln): LayerNorm((2730,), eps=1e-06, elementwise_affine=True)
          (w3): Linear(in_features=2730, out_features=1024, bias=True)
          (drop): Dropout(p=0.0, inplace=False)
        )
      )
      (16): Block(
        (norm1): LayerNorm((1024,), eps=1e-06, elementwise_affine=True)
        (attn): Attention(
          (q_proj): Linear(in_features=1024, out_features=1024, bias=False)
          (k_proj): Linear(in_features=1024, out_features=1024, bias=False)
          (v_proj): Linear(in_features=1024, out_features=1024, bias=False)
          (rope): VisionRotaryEmbeddingFast()
          (proj): Linear(in_features=1024, out_features=1024, bias=True)
          (inner_attn_ln): Identity()
          (inner_attn): FlashAttention()
        )
        (drop_path): DropPath()
        (norm2): LayerNorm((1024,), eps=1e-06, elementwise_affine=True)
        (mlp): SwiGLU(
          (w1): Linear(in_features=1024, out_features=2730, bias=True)
          (w2): Linear(in_features=1024, out_features=2730, bias=True)
          (act): SiLU()
          (ffn_ln): LayerNorm((2730,), eps=1e-06, elementwise_affine=True)
          (w3): Linear(in_features=2730, out_features=1024, bias=True)
          (drop): Dropout(p=0.0, inplace=False)
        )
      )
      (17): Block(
        (norm1): LayerNorm((1024,), eps=1e-06, elementwise_affine=True)
        (attn): Attention(
          (q_proj): Linear(in_features=1024, out_features=1024, bias=False)
          (k_proj): Linear(in_features=1024, out_features=1024, bias=False)
          (v_proj): Linear(in_features=1024, out_features=1024, bias=False)
          (rope): VisionRotaryEmbeddingFast()
          (proj): Linear(in_features=1024, out_features=1024, bias=True)
          (inner_attn_ln): Identity()
          (inner_attn): FlashAttention()
        )
        (drop_path): DropPath()
        (norm2): LayerNorm((1024,), eps=1e-06, elementwise_affine=True)
        (mlp): SwiGLU(
          (w1): Linear(in_features=1024, out_features=2730, bias=True)
          (w2): Linear(in_features=1024, out_features=2730, bias=True)
          (act): SiLU()
          (ffn_ln): LayerNorm((2730,), eps=1e-06, elementwise_affine=True)
          (w3): Linear(in_features=2730, out_features=1024, bias=True)
          (drop): Dropout(p=0.0, inplace=False)
        )
      )
      (18): Block(
        (norm1): LayerNorm((1024,), eps=1e-06, elementwise_affine=True)
        (attn): Attention(
          (q_proj): Linear(in_features=1024, out_features=1024, bias=False)
          (k_proj): Linear(in_features=1024, out_features=1024, bias=False)
          (v_proj): Linear(in_features=1024, out_features=1024, bias=False)
          (rope): VisionRotaryEmbeddingFast()
          (proj): Linear(in_features=1024, out_features=1024, bias=True)
          (inner_attn_ln): Identity()
          (inner_attn): FlashAttention()
        )
        (drop_path): DropPath()
        (norm2): LayerNorm((1024,), eps=1e-06, elementwise_affine=True)
        (mlp): SwiGLU(
          (w1): Linear(in_features=1024, out_features=2730, bias=True)
          (w2): Linear(in_features=1024, out_features=2730, bias=True)
          (act): SiLU()
          (ffn_ln): LayerNorm((2730,), eps=1e-06, elementwise_affine=True)
          (w3): Linear(in_features=2730, out_features=1024, bias=True)
          (drop): Dropout(p=0.0, inplace=False)
        )
      )
      (19): Block(
        (norm1): LayerNorm((1024,), eps=1e-06, elementwise_affine=True)
        (attn): Attention(
          (q_proj): Linear(in_features=1024, out_features=1024, bias=False)
          (k_proj): Linear(in_features=1024, out_features=1024, bias=False)
          (v_proj): Linear(in_features=1024, out_features=1024, bias=False)
          (rope): VisionRotaryEmbeddingFast()
          (proj): Linear(in_features=1024, out_features=1024, bias=True)
          (inner_attn_ln): Identity()
          (inner_attn): FlashAttention()
        )
        (drop_path): DropPath()
        (norm2): LayerNorm((1024,), eps=1e-06, elementwise_affine=True)
        (mlp): SwiGLU(
          (w1): Linear(in_features=1024, out_features=2730, bias=True)
          (w2): Linear(in_features=1024, out_features=2730, bias=True)
          (act): SiLU()
          (ffn_ln): LayerNorm((2730,), eps=1e-06, elementwise_affine=True)
          (w3): Linear(in_features=2730, out_features=1024, bias=True)
          (drop): Dropout(p=0.0, inplace=False)
        )
      )
      (20): Block(
        (norm1): LayerNorm((1024,), eps=1e-06, elementwise_affine=True)
        (attn): Attention(
          (q_proj): Linear(in_features=1024, out_features=1024, bias=False)
          (k_proj): Linear(in_features=1024, out_features=1024, bias=False)
          (v_proj): Linear(in_features=1024, out_features=1024, bias=False)
          (rope): VisionRotaryEmbeddingFast()
          (proj): Linear(in_features=1024, out_features=1024, bias=True)
          (inner_attn_ln): Identity()
          (inner_attn): FlashAttention()
        )
        (drop_path): DropPath()
        (norm2): LayerNorm((1024,), eps=1e-06, elementwise_affine=True)
        (mlp): SwiGLU(
          (w1): Linear(in_features=1024, out_features=2730, bias=True)
          (w2): Linear(in_features=1024, out_features=2730, bias=True)
          (act): SiLU()
          (ffn_ln): LayerNorm((2730,), eps=1e-06, elementwise_affine=True)
          (w3): Linear(in_features=2730, out_features=1024, bias=True)
          (drop): Dropout(p=0.0, inplace=False)
        )
      )
      (21): Block(
        (norm1): LayerNorm((1024,), eps=1e-06, elementwise_affine=True)
        (attn): Attention(
          (q_proj): Linear(in_features=1024, out_features=1024, bias=False)
          (k_proj): Linear(in_features=1024, out_features=1024, bias=False)
          (v_proj): Linear(in_features=1024, out_features=1024, bias=False)
          (rope): VisionRotaryEmbeddingFast()
          (proj): Linear(in_features=1024, out_features=1024, bias=True)
          (inner_attn_ln): Identity()
          (inner_attn): FlashAttention()
        )
        (drop_path): DropPath()
        (norm2): LayerNorm((1024,), eps=1e-06, elementwise_affine=True)
        (mlp): SwiGLU(
          (w1): Linear(in_features=1024, out_features=2730, bias=True)
          (w2): Linear(in_features=1024, out_features=2730, bias=True)
          (act): SiLU()
          (ffn_ln): LayerNorm((2730,), eps=1e-06, elementwise_affine=True)
          (w3): Linear(in_features=2730, out_features=1024, bias=True)
          (drop): Dropout(p=0.0, inplace=False)
        )
      )
      (22): Block(
        (norm1): LayerNorm((1024,), eps=1e-06, elementwise_affine=True)
        (attn): Attention(
          (q_proj): Linear(in_features=1024, out_features=1024, bias=False)
          (k_proj): Linear(in_features=1024, out_features=1024, bias=False)
          (v_proj): Linear(in_features=1024, out_features=1024, bias=False)
          (rope): VisionRotaryEmbeddingFast()
          (proj): Linear(in_features=1024, out_features=1024, bias=True)
          (inner_attn_ln): Identity()
          (inner_attn): FlashAttention()
        )
        (drop_path): DropPath()
        (norm2): LayerNorm((1024,), eps=1e-06, elementwise_affine=True)
        (mlp): SwiGLU(
          (w1): Linear(in_features=1024, out_features=2730, bias=True)
          (w2): Linear(in_features=1024, out_features=2730, bias=True)
          (act): SiLU()
          (ffn_ln): LayerNorm((2730,), eps=1e-06, elementwise_affine=True)
          (w3): Linear(in_features=2730, out_features=1024, bias=True)
          (drop): Dropout(p=0.0, inplace=False)
        )
      )
      (23): Block(
        (norm1): LayerNorm((1024,), eps=1e-06, elementwise_affine=True)
        (attn): Attention(
          (q_proj): Linear(in_features=1024, out_features=1024, bias=False)
          (k_proj): Linear(in_features=1024, out_features=1024, bias=False)
          (v_proj): Linear(in_features=1024, out_features=1024, bias=False)
          (rope): VisionRotaryEmbeddingFast()
          (proj): Linear(in_features=1024, out_features=1024, bias=True)
          (inner_attn_ln): Identity()
          (inner_attn): FlashAttention()
        )
        (drop_path): DropPath()
        (norm2): LayerNorm((1024,), eps=1e-06, elementwise_affine=True)
        (mlp): SwiGLU(
          (w1): Linear(in_features=1024, out_features=2730, bias=True)
          (w2): Linear(in_features=1024, out_features=2730, bias=True)
          (act): SiLU()
          (ffn_ln): LayerNorm((2730,), eps=1e-06, elementwise_affine=True)
          (w3): Linear(in_features=2730, out_features=1024, bias=True)
          (drop): Dropout(p=0.0, inplace=False)
        )
      )
    )
  )
  (grid_mask): GridMask()
  (query_pos): Sequential(
    (0): Linear(in_features=396, out_features=256, bias=True)
    (1): ReLU()
    (2): Linear(in_features=256, out_features=256, bias=True)
  )
  (time_embedding): Sequential(
    (0): Linear(in_features=256, out_features=256, bias=True)
    (1): LayerNorm((256,), eps=1e-05, elementwise_affine=True)
  )
  (ego_pose_pe): MLN(
    (reduce): Sequential(
      (0): Linear(in_features=156, out_features=256, bias=True)
      (1): ReLU()
    )
    (gamma): Linear(in_features=256, out_features=256, bias=True)
    (beta): Linear(in_features=256, out_features=256, bias=True)
    (ln): LayerNorm((256,), eps=1e-05, elementwise_affine=False)
  )
  (map_head): PETRHeadM(
    (loss_cls): FocalLoss()
    (loss_bbox): L1Loss()
    (cls_branches): ModuleList(
      (0): Sequential(
        (0): Linear(in_features=256, out_features=256, bias=True)
        (1): LayerNorm((256,), eps=1e-05, elementwise_affine=True)
        (2): ReLU(inplace=True)
        (3): Linear(in_features=256, out_features=256, bias=True)
        (4): LayerNorm((256,), eps=1e-05, elementwise_affine=True)
        (5): ReLU(inplace=True)
        (6): Linear(in_features=256, out_features=1, bias=True)
      )
      (1): Sequential(
        (0): Linear(in_features=256, out_features=256, bias=True)
        (1): LayerNorm((256,), eps=1e-05, elementwise_affine=True)
        (2): ReLU(inplace=True)
        (3): Linear(in_features=256, out_features=256, bias=True)
        (4): LayerNorm((256,), eps=1e-05, elementwise_affine=True)
        (5): ReLU(inplace=True)
        (6): Linear(in_features=256, out_features=1, bias=True)
      )
      (2): Sequential(
        (0): Linear(in_features=256, out_features=256, bias=True)
        (1): LayerNorm((256,), eps=1e-05, elementwise_affine=True)
        (2): ReLU(inplace=True)
        (3): Linear(in_features=256, out_features=256, bias=True)
        (4): LayerNorm((256,), eps=1e-05, elementwise_affine=True)
        (5): ReLU(inplace=True)
        (6): Linear(in_features=256, out_features=1, bias=True)
      )
      (3): Sequential(
        (0): Linear(in_features=256, out_features=256, bias=True)
        (1): LayerNorm((256,), eps=1e-05, elementwise_affine=True)
        (2): ReLU(inplace=True)
        (3): Linear(in_features=256, out_features=256, bias=True)
        (4): LayerNorm((256,), eps=1e-05, elementwise_affine=True)
        (5): ReLU(inplace=True)
        (6): Linear(in_features=256, out_features=1, bias=True)
      )
      (4): Sequential(
        (0): Linear(in_features=256, out_features=256, bias=True)
        (1): LayerNorm((256,), eps=1e-05, elementwise_affine=True)
        (2): ReLU(inplace=True)
        (3): Linear(in_features=256, out_features=256, bias=True)
        (4): LayerNorm((256,), eps=1e-05, elementwise_affine=True)
        (5): ReLU(inplace=True)
        (6): Linear(in_features=256, out_features=1, bias=True)
      )
      (5): Sequential(
        (0): Linear(in_features=256, out_features=256, bias=True)
        (1): LayerNorm((256,), eps=1e-05, elementwise_affine=True)
        (2): ReLU(inplace=True)
        (3): Linear(in_features=256, out_features=256, bias=True)
        (4): LayerNorm((256,), eps=1e-05, elementwise_affine=True)
        (5): ReLU(inplace=True)
        (6): Linear(in_features=256, out_features=1, bias=True)
      )
    )
    (reg_branches): ModuleList(
      (0): Sequential(
        (0): Linear(in_features=256, out_features=256, bias=True)
        (1): ReLU()
        (2): Linear(in_features=256, out_features=256, bias=True)
        (3): ReLU()
        (4): Linear(in_features=256, out_features=33, bias=True)
      )
      (1): Sequential(
        (0): Linear(in_features=256, out_features=256, bias=True)
        (1): ReLU()
        (2): Linear(in_features=256, out_features=256, bias=True)
        (3): ReLU()
        (4): Linear(in_features=256, out_features=33, bias=True)
      )
      (2): Sequential(
        (0): Linear(in_features=256, out_features=256, bias=True)
        (1): ReLU()
        (2): Linear(in_features=256, out_features=256, bias=True)
        (3): ReLU()
        (4): Linear(in_features=256, out_features=33, bias=True)
      )
      (3): Sequential(
        (0): Linear(in_features=256, out_features=256, bias=True)
        (1): ReLU()
        (2): Linear(in_features=256, out_features=256, bias=True)
        (3): ReLU()
        (4): Linear(in_features=256, out_features=33, bias=True)
      )
      (4): Sequential(
        (0): Linear(in_features=256, out_features=256, bias=True)
        (1): ReLU()
        (2): Linear(in_features=256, out_features=256, bias=True)
        (3): ReLU()
        (4): Linear(in_features=256, out_features=33, bias=True)
      )
      (5): Sequential(
        (0): Linear(in_features=256, out_features=256, bias=True)
        (1): ReLU()
        (2): Linear(in_features=256, out_features=256, bias=True)
        (3): ReLU()
        (4): Linear(in_features=256, out_features=33, bias=True)
      )
    )
    (input_projection): Linear(in_features=1024, out_features=256, bias=True)
    (output_projection): Linear(in_features=256, out_features=4096, bias=True)
    (reference_points_lane): Linear(in_features=256, out_features=3, bias=True)
    (points_embedding_lane): Embedding(11, 256)
    (instance_embedding_lane): Embedding(1800, 256)
    (query_embedding): Embedding(256, 256)
    (loss_dir): PtsDirCosLoss()
    (transformer): PETRTemporalTransformer(
      (query_decoder): PETRTransformerDecoder(
        (_layers): ModuleList(
          (0): PETRTransformerDecoderLayer(
            (transformer_layers): ModuleList(
              (0): MultiHeadAttentionwDropout(
                (attn): MultiheadAttention(
                  (out_proj): NonDynamicallyQuantizableLinear(in_features=256, out_features=256, bias=True)
                )
                (proj_drop): Dropout(p=0.1, inplace=False)
              )
              (1): LayerNorm((256,), eps=1e-05, elementwise_affine=True)
              (2): MultiHeadAttentionwDropout(
                (attn): FlashMHA(
                  (inner_attn): FlashAttention()
                  (out_proj): Linear(in_features=256, out_features=256, bias=True)
                )
                (proj_drop): Dropout(p=0.1, inplace=False)
              )
              (3): LayerNorm((256,), eps=1e-05, elementwise_affine=True)
              (4): FFN(
                (_layers): Sequential(
                  (0): Linear(in_features=256, out_features=2048, bias=True)
                  (1): ReLU(inplace=True)
                  (2): Dropout(p=0.1, inplace=False)
                  (3): Linear(in_features=2048, out_features=256, bias=True)
                  (4): Dropout(p=0.1, inplace=False)
                )
              )
              (5): LayerNorm((256,), eps=1e-05, elementwise_affine=True)
            )
          )
          (1): PETRTransformerDecoderLayer(
            (transformer_layers): ModuleList(
              (0): MultiHeadAttentionwDropout(
                (attn): MultiheadAttention(
                  (out_proj): NonDynamicallyQuantizableLinear(in_features=256, out_features=256, bias=True)
                )
                (proj_drop): Dropout(p=0.1, inplace=False)
              )
              (1): LayerNorm((256,), eps=1e-05, elementwise_affine=True)
              (2): MultiHeadAttentionwDropout(
                (attn): FlashMHA(
                  (inner_attn): FlashAttention()
                  (out_proj): Linear(in_features=256, out_features=256, bias=True)
                )
                (proj_drop): Dropout(p=0.1, inplace=False)
              )
              (3): LayerNorm((256,), eps=1e-05, elementwise_affine=True)
              (4): FFN(
                (_layers): Sequential(
                  (0): Linear(in_features=256, out_features=2048, bias=True)
                  (1): ReLU(inplace=True)
                  (2): Dropout(p=0.1, inplace=False)
                  (3): Linear(in_features=2048, out_features=256, bias=True)
                  (4): Dropout(p=0.1, inplace=False)
                )
              )
              (5): LayerNorm((256,), eps=1e-05, elementwise_affine=True)
            )
          )
          (2): PETRTransformerDecoderLayer(
            (transformer_layers): ModuleList(
              (0): MultiHeadAttentionwDropout(
                (attn): MultiheadAttention(
                  (out_proj): NonDynamicallyQuantizableLinear(in_features=256, out_features=256, bias=True)
                )
                (proj_drop): Dropout(p=0.1, inplace=False)
              )
              (1): LayerNorm((256,), eps=1e-05, elementwise_affine=True)
              (2): MultiHeadAttentionwDropout(
                (attn): FlashMHA(
                  (inner_attn): FlashAttention()
                  (out_proj): Linear(in_features=256, out_features=256, bias=True)
                )
                (proj_drop): Dropout(p=0.1, inplace=False)
              )
              (3): LayerNorm((256,), eps=1e-05, elementwise_affine=True)
              (4): FFN(
                (_layers): Sequential(
                  (0): Linear(in_features=256, out_features=2048, bias=True)
                  (1): ReLU(inplace=True)
                  (2): Dropout(p=0.1, inplace=False)
                  (3): Linear(in_features=2048, out_features=256, bias=True)
                  (4): Dropout(p=0.1, inplace=False)
                )
              )
              (5): LayerNorm((256,), eps=1e-05, elementwise_affine=True)
            )
          )
          (3): PETRTransformerDecoderLayer(
            (transformer_layers): ModuleList(
              (0): MultiHeadAttentionwDropout(
                (attn): MultiheadAttention(
                  (out_proj): NonDynamicallyQuantizableLinear(in_features=256, out_features=256, bias=True)
                )
                (proj_drop): Dropout(p=0.1, inplace=False)
              )
              (1): LayerNorm((256,), eps=1e-05, elementwise_affine=True)
              (2): MultiHeadAttentionwDropout(
                (attn): FlashMHA(
                  (inner_attn): FlashAttention()
                  (out_proj): Linear(in_features=256, out_features=256, bias=True)
                )
                (proj_drop): Dropout(p=0.1, inplace=False)
              )
              (3): LayerNorm((256,), eps=1e-05, elementwise_affine=True)
              (4): FFN(
                (_layers): Sequential(
                  (0): Linear(in_features=256, out_features=2048, bias=True)
                  (1): ReLU(inplace=True)
                  (2): Dropout(p=0.1, inplace=False)
                  (3): Linear(in_features=2048, out_features=256, bias=True)
                  (4): Dropout(p=0.1, inplace=False)
                )
              )
              (5): LayerNorm((256,), eps=1e-05, elementwise_affine=True)
            )
          )
          (4): PETRTransformerDecoderLayer(
            (transformer_layers): ModuleList(
              (0): MultiHeadAttentionwDropout(
                (attn): MultiheadAttention(
                  (out_proj): NonDynamicallyQuantizableLinear(in_features=256, out_features=256, bias=True)
                )
                (proj_drop): Dropout(p=0.1, inplace=False)
              )
              (1): LayerNorm((256,), eps=1e-05, elementwise_affine=True)
              (2): MultiHeadAttentionwDropout(
                (attn): FlashMHA(
                  (inner_attn): FlashAttention()
                  (out_proj): Linear(in_features=256, out_features=256, bias=True)
                )
                (proj_drop): Dropout(p=0.1, inplace=False)
              )
              (3): LayerNorm((256,), eps=1e-05, elementwise_affine=True)
              (4): FFN(
                (_layers): Sequential(
                  (0): Linear(in_features=256, out_features=2048, bias=True)
                  (1): ReLU(inplace=True)
                  (2): Dropout(p=0.1, inplace=False)
                  (3): Linear(in_features=2048, out_features=256, bias=True)
                  (4): Dropout(p=0.1, inplace=False)
                )
              )
              (5): LayerNorm((256,), eps=1e-05, elementwise_affine=True)
            )
          )
          (5): PETRTransformerDecoderLayer(
            (transformer_layers): ModuleList(
              (0): MultiHeadAttentionwDropout(
                (attn): MultiheadAttention(
                  (out_proj): NonDynamicallyQuantizableLinear(in_features=256, out_features=256, bias=True)
                )
                (proj_drop): Dropout(p=0.1, inplace=False)
              )
              (1): LayerNorm((256,), eps=1e-05, elementwise_affine=True)
              (2): MultiHeadAttentionwDropout(
                (attn): FlashMHA(
                  (inner_attn): FlashAttention()
                  (out_proj): Linear(in_features=256, out_features=256, bias=True)
                )
                (proj_drop): Dropout(p=0.1, inplace=False)
              )
              (3): LayerNorm((256,), eps=1e-05, elementwise_affine=True)
              (4): FFN(
                (_layers): Sequential(
                  (0): Linear(in_features=256, out_features=2048, bias=True)
                  (1): ReLU(inplace=True)
                  (2): Dropout(p=0.1, inplace=False)
                  (3): Linear(in_features=2048, out_features=256, bias=True)
                  (4): Dropout(p=0.1, inplace=False)
                )
              )
              (5): LayerNorm((256,), eps=1e-05, elementwise_affine=True)
            )
          )
        )
      )
    )
    (query_pos): Sequential(
      (0): Linear(in_features=396, out_features=256, bias=True)
      (1): ReLU()
      (2): Linear(in_features=256, out_features=256, bias=True)
    )
    (time_embedding): Sequential(
      (0): Linear(in_features=256, out_features=256, bias=True)
      (1): LayerNorm((256,), eps=1e-05, elementwise_affine=True)
    )
    (ego_pose_pe): MLN(
      (reduce): Sequential(
        (0): Linear(in_features=156, out_features=256, bias=True)
        (1): ReLU()
      )
      (gamma): Linear(in_features=256, out_features=256, bias=True)
      (beta): Linear(in_features=256, out_features=256, bias=True)
      (ln): LayerNorm((256,), eps=1e-05, elementwise_affine=False)
    )
  )
  (position_encoder): Sequential(
    (0): Linear(in_features=192, out_features=1024, bias=True)
    (1): ReLU()
    (2): Linear(in_features=1024, out_features=256, bias=True)
  )
  (lm_head): PeftModelForCausalLM(
    (base_model): LoraModel(
      (model): LlavaLlamaForCausalLM(
        (model): LlavaLlamaModel(
          (embed_tokens): Embedding(32000, 4096, padding_idx=0)
          (layers): ModuleList(
            (0): LlamaDecoderLayer(
              (self_attn): LlamaAttention(
                (q_proj): Linear8bitLt(in_features=4096, out_features=4096, bias=False)
                (k_proj): lora.Linear8bitLt(
                  (base_layer): Linear8bitLt(in_features=4096, out_features=4096, bias=False)
                  (lora_dropout): ModuleDict(
                    (default): Dropout(p=0.05, inplace=False)
                  )
                  (lora_A): ModuleDict(
                    (default): Linear(in_features=4096, out_features=8, bias=False)
                  )
                  (lora_B): ModuleDict(
                    (default): Linear(in_features=8, out_features=4096, bias=False)
                  )
                  (lora_embedding_A): ParameterDict()
                  (lora_embedding_B): ParameterDict()
                  (lora_magnitude_vector): ModuleDict()
                )
                (v_proj): lora.Linear8bitLt(
                  (base_layer): Linear8bitLt(in_features=4096, out_features=4096, bias=False)
                  (lora_dropout): ModuleDict(
                    (default): Dropout(p=0.05, inplace=False)
                  )
                  (lora_A): ModuleDict(
                    (default): Linear(in_features=4096, out_features=8, bias=False)
                  )
                  (lora_B): ModuleDict(
                    (default): Linear(in_features=8, out_features=4096, bias=False)
                  )
                  (lora_embedding_A): ParameterDict()
                  (lora_embedding_B): ParameterDict()
                  (lora_magnitude_vector): ModuleDict()
                )
                (o_proj): lora.Linear8bitLt(
                  (base_layer): Linear8bitLt(in_features=4096, out_features=4096, bias=False)
                  (lora_dropout): ModuleDict(
                    (default): Dropout(p=0.05, inplace=False)
                  )
                  (lora_A): ModuleDict(
                    (default): Linear(in_features=4096, out_features=8, bias=False)
                  )
                  (lora_B): ModuleDict(
                    (default): Linear(in_features=8, out_features=4096, bias=False)
                  )
                  (lora_embedding_A): ParameterDict()
                  (lora_embedding_B): ParameterDict()
                  (lora_magnitude_vector): ModuleDict()
                )
                (rotary_emb): LlamaRotaryEmbedding()
              )
              (mlp): LlamaMLP(
                (gate_proj): Linear8bitLt(in_features=4096, out_features=11008, bias=False)
…
              (input_layernorm): LlamaRMSNorm()
              (post_attention_layernorm): LlamaRMSNorm()
            )
            (1): LlamaDecoderLayer(
              (self_attn): LlamaAttention(
                (q_proj): Linear8bitLt(in_features=4096, out_features=4096, bias=False)
                (k_proj): lora.Linear8bitLt(
                  (base_layer): Linear8bitLt(in_features=4096, out_features=4096, bias=False)
                  (lora_dropout): ModuleDict(
                    (default): Dropout(p=0.05, inplace=False)
                  )
                  (lora_A): ModuleDict(
                    (default): Linear(in_features=4096, out_features=8, bias=False)
                  )
                  (lora_B): ModuleDict(
                    (default): Linear(in_features=8, out_features=4096, bias=False)
                  )
                  (lora_embedding_A): ParameterDict()
                  (lora_embedding_B): ParameterDict()
                  (lora_magnitude_vector): ModuleDict()
                )
                (v_proj): lora.Linear8bitLt(
                  (base_layer): Linear8bitLt(in_features=4096, out_features=4096, bias=False)
                  (lora_dropout): ModuleDict(
                    (default): Dropout(p=0.05, inplace=False)
                  )
                  (lora_A): ModuleDict(
                    (default): Linear(in_features=4096, out_features=8, bias=False)
                  )
                  (lora_B): ModuleDict(
                    (default): Linear(in_features=8, out_features=4096, bias=False)
                  )
                  (lora_embedding_A): ParameterDict()
                  (lora_embedding_B): ParameterDict()
                  (lora_magnitude_vector): ModuleDict()
                )
                (o_proj): lora.Linear8bitLt(
                  (base_layer): Linear8bitLt(in_features=4096, out_features=4096, bias=False)
                  (lora_dropout): ModuleDict(
                    (default): Dropout(p=0.05, inplace=False)
                  )
                  (lora_A): ModuleDict(
                    (default): Linear(in_features=4096, out_features=8, bias=False)
                  )
                  (lora_B): ModuleDict(
                    (default): Linear(in_features=8, out_features=4096, bias=False)
                  )
                  (lora_embedding_A): ParameterDict()
                  (lora_embedding_B): ParameterDict()
                  (lora_magnitude_vector): ModuleDict()
                )
                (rotary_emb): LlamaRotaryEmbedding()
              )
              (mlp): LlamaMLP(
                (gate_proj): Linear8bitLt(in_features=4096, out_features=11008, bias=False)
…
              (input_layernorm): LlamaRMSNorm()
              (post_attention_layernorm): LlamaRMSNorm()
            )
            (31): LlamaDecoderLayer(
              (self_attn): LlamaAttention(
                (q_proj): Linear8bitLt(in_features=4096, out_features=4096, bias=False)
                (k_proj): lora.Linear8bitLt(
                  (base_layer): Linear8bitLt(in_features=4096, out_features=4096, bias=False)
                  (lora_dropout): ModuleDict(
                    (default): Dropout(p=0.05, inplace=False)
                  )
                  (lora_A): ModuleDict(
                    (default): Linear(in_features=4096, out_features=8, bias=False)
                  )
                  (lora_B): ModuleDict(
                    (default): Linear(in_features=8, out_features=4096, bias=False)
                  )
                  (lora_embedding_A): ParameterDict()
                  (lora_embedding_B): ParameterDict()
                  (lora_magnitude_vector): ModuleDict()
                )
                (v_proj): lora.Linear8bitLt(
                  (base_layer): Linear8bitLt(in_features=4096, out_features=4096, bias=False)
                  (lora_dropout): ModuleDict(
                    (default): Dropout(p=0.05, inplace=False)
                  )
                  (lora_A): ModuleDict(
                    (default): Linear(in_features=4096, out_features=8, bias=False)
                  )
                  (lora_B): ModuleDict(
                    (default): Linear(in_features=8, out_features=4096, bias=False)
                  )
                  (lora_embedding_A): ParameterDict()
                  (lora_embedding_B): ParameterDict()
                  (lora_magnitude_vector): ModuleDict()
                )
                (o_proj): lora.Linear8bitLt(
                  (base_layer): Linear8bitLt(in_features=4096, out_features=4096, bias=False)
                  (lora_dropout): ModuleDict(
                    (default): Dropout(p=0.05, inplace=False)
                  )
                  (lora_A): ModuleDict(
                    (default): Linear(in_features=4096, out_features=8, bias=False)
                  )
                  (lora_B): ModuleDict(
                    (default): Linear(in_features=8, out_features=4096, bias=False)
                  )
                  (lora_embedding_A): ParameterDict()
                  (lora_embedding_B): ParameterDict()
                  (lora_magnitude_vector): ModuleDict()
                )
                (rotary_emb): LlamaRotaryEmbedding()
              )
              (mlp): LlamaMLP(
                (gate_proj): Linear8bitLt(in_features=4096, out_features=11008, bias=False)
                (up_proj): Linear8bitLt(in_features=4096, out_features=11008, bias=False)
                (down_proj): Linear8bitLt(in_features=11008, out_features=4096, bias=False)
                (act_fn): SiLUActivation()
              )
              (input_layernorm): LlamaRMSNorm()
              (post_attention_layernorm): LlamaRMSNorm()
            )
          )
          (norm): LlamaRMSNorm()
        )
        (lm_head): Linear(in_features=4096, out_features=32000, bias=False)
      )
    )
  )
)
2025-03-02 05:30:00,666 - mmdet - INFO - Total parameters: 7,075,952,111
2025-03-02 05:30:00,666 - mmdet - INFO - Trainable parameters: 337,535,489
2025-03-02 05:30:00,667 - mmdet - INFO - pts_bbox_head: 15,805,882 parameters (0.22%)
2025-03-02 05:30:00,667 - mmdet - INFO - pts_bbox_head: 15,804,956 trainable parameters(4.68%)
2025-03-02 05:30:00,667 - mmdet - INFO -   pts_bbox_head breakdown:
…
